…
    edge_h_dim: [64, 4]
    num_layers: 4
    drop_rate: 0.5
    out_dim: 4
    attention_heads: 4
    attention_dropout: 0.1
    epochs: 50
    lr: 0.0001
    label_smoothing: 0.05
    batch_size: 8
    num_workers: 8
    val_every: 5
    model_path: /home/ml2169/rds/hpc-work/geometric-rna-design/checkpoints/gRNAde_ARv1_max_nodes_500_das.h5
    evaluate: True
    n_samples: 16
    temperature: 0.1
    sampling_strategy: min_p
    top_k_sampling: 2
    top_p_sampling: 0.9
    min_p_sampling: 0.05
    beam_width: 2
    beam_branch: 6

MODEL
    AutoregressiveMultiGNNv2(
  (W_v): Sequential(
    (0): LayerNorm(
      (scalar_norm): LayerNorm((15,), eps=1e-05, elementwise_affine=True)
    )
    (1): GVP(
      (wh): Linear(in_features=4, out_features=16, bias=False)
      (ws): Linear(in_features=31, out_features=128, bias=True)
      (wv): Linear(in_features=16, out_features=16, bias=False)
      (wsv): Linear(in_features=128, out_features=16, bias=True)
    )
  )
  (W_e): Sequential(
    (0): LayerNorm(
      (scalar_norm): LayerNorm((131,), eps=1e-05, elementwise_affine=True)
    )
    (1): GVP(
      (wh): Linear(in_features=3, out_features=4, bias=False)
      (ws): Linear(in_features=135, out_features=64, bias=True)
      (wv): Linear(in_features=4, out_features=4, bias=False)
      (wsv): Linear(in_features=64, out_features=4, bias=True)
    )
  )
  (encoder_layers): ModuleList(
    (0-3): 4 x MultiAttentiveGVPLayer(
      (conv): MultiGVPConv()
      (attention): GraphAttentionLayer(
        (W_Q): Linear(in_features=144, out_features=576, bias=True)
        (W_K): Linear(in_features=144, out_features=576, bias=True)
        (W_V): Linear(in_features=128, out_features=512, bias=True)
        (W_O): Linear(in_features=128, out_features=128, bias=True)
        (dropout): Dropout(p=0.1, inplace=False)
      )
      (norm): LayerNorm(
        (scalar_norm): LayerNorm((128,), eps=1e-05, elementwise_affine=True)
      )
      (dropout): Dropout(
        (sdropout): Dropout(p=0.5, inplace=False)
        (vdropout): _VDropout()
      )
    )
  )
  (psi): Sequential(
    (0): Linear(in_features=16512, out_features=256, bias=True)
    (1): SiLU()
    (2): Dropout(p=0.5, inplace=False)
    (3): Linear(in_features=256, out_features=128, bias=True)
  )
  (W_s): Embedding(4, 4)
  (decoder_layers): ModuleList(
    (0-3): 4 x AttentiveGVPLayer(
      (gvp_branch): GVPConvLayer(
        (conv): GVPConv()
        (norm): ModuleList(
          (0-1): 2 x LayerNorm(
            (scalar_norm): LayerNorm((128,), eps=1e-05, elementwise_affine=True)
          )
        )
        (dropout): ModuleList(
          (0-1): 2 x Dropout(
            (sdropout): Dropout(p=0.5, inplace=False)
            (vdropout): _VDropout()
          )
        )
        (ff_func): Sequential(
          (0): GVP(
            (wh): Linear(in_features=16, out_features=32, bias=False)
            (ws): Linear(in_features=160, out_features=512, bias=True)
            (wv): Linear(in_features=32, out_features=32, bias=False)
            (wsv): Linear(in_features=512, out_features=32, bias=True)
          )
          (1): GVP(
            (wh): Linear(in_features=32, out_features=32, bias=False)
            (ws): Linear(in_features=544, out_features=128, bias=True)
            (wv): Linear(in_features=32, out_features=16, bias=False)
            (wsv): Linear(in_features=128, out_features=16, bias=True)
          )
        )
      )
      (attention_branch): GraphAttentionLayer(
        (W_Q): Linear(in_features=144, out_features=576, bias=True)
        (W_K): Linear(in_features=144, out_features=576, bias=True)
        (W_V): Linear(in_features=128, out_features=512, bias=True)
        (W_O): Linear(in_features=128, out_features=128, bias=True)
        (dropout): Dropout(p=0.1, inplace=False)
      )
      (norm): LayerNorm(
        (scalar_norm): LayerNorm((128,), eps=1e-05, elementwise_affine=True)
      )
      (dropout): Dropout(
        (sdropout): Dropout(p=0.5, inplace=False)
        (vdropout): _VDropout()
      )
      (ff_func): Sequential(
        (0): GVP(
          (wh): Linear(in_features=16, out_features=32, bias=False)
          (ws): Linear(in_features=160, out_features=512, bias=True)
          (wv): Linear(in_features=32, out_features=32, bias=False)
          (wsv): Linear(in_features=512, out_features=32, bias=True)
        )
        (1): GVP(
          (wh): Linear(in_features=32, out_features=32, bias=False)
          (ws): Linear(in_features=544, out_features=128, bias=True)
          (wv): Linear(in_features=32, out_features=16, bias=False)
          (wsv): Linear(in_features=128, out_features=16, bias=True)
        )
      )
      (final_norm): LayerNorm(
        (scalar_norm): LayerNorm((128,), eps=1e-05, elementwise_affine=True)
      )
    )
  )
  (W_out): GVP(
    (wh): Linear(in_features=16, out_features=16, bias=False)
    (ws): Linear(in_features=144, out_features=4, bias=True)
  )
)
    Total parameters: 8405992

TEST DATASET
    Pre-processing 98 samples
  0%|          | 0/98 [00:00<?, ?it/s]100%|██████████| 98/98 [00:00<00:00, 2757.23it/s]
    Finished: 98 pre-processed samples
Loading RhoFold checkpoint: /rds/user/ml2169/hpc-work/geometric-rna-design/tools/rhofold/model_20221010_params.pt
  0%|          | 0/98 [00:00<?, ?it/s]Using sampling strategy: min_p
…
