…
    num_posenc: 32
    max_num_conformers: 1
    noise_scale: 0.1
    max_nodes_batch: 3000
    max_nodes_sample: 500
    split: das
    model: ARv1
    node_in_dim: [15, 4]
    node_h_dim: [128, 16]
    edge_in_dim: [131, 3]
    edge_h_dim: [64, 4]
    num_layers: 4
    drop_rate: 0.5
    out_dim: 4
    attention_heads: 4
    attention_dropout: 0.1
    epochs: 50
    lr: 0.0001
    label_smoothing: 0.05
    batch_size: 8
    num_workers: 8
    val_every: 5
    model_path: 
    evaluate: False
    n_samples: 16
    temperature: 0.1

MODEL
    AutoregressiveMultiGNNv1(
  (W_v): Sequential(
    (0): LayerNorm(
      (scalar_norm): LayerNorm((15,), eps=1e-05, elementwise_affine=True)
    )
    (1): GVP(
      (wh): Linear(in_features=4, out_features=16, bias=False)
      (ws): Linear(in_features=31, out_features=128, bias=True)
      (wv): Linear(in_features=16, out_features=16, bias=False)
      (wsv): Linear(in_features=128, out_features=16, bias=True)
    )
  )
  (W_e): Sequential(
    (0): LayerNorm(
      (scalar_norm): LayerNorm((131,), eps=1e-05, elementwise_affine=True)
    )
    (1): GVP(
      (wh): Linear(in_features=3, out_features=4, bias=False)
      (ws): Linear(in_features=135, out_features=64, bias=True)
      (wv): Linear(in_features=4, out_features=4, bias=False)
      (wsv): Linear(in_features=64, out_features=4, bias=True)
    )
  )
  (encoder_layers): ModuleList(
    (0-3): 4 x MultiAttentiveGVPLayer(
      (conv): MultiGVPConv()
      (attention): GraphAttentionLayer(
        (W_Q): Linear(in_features=144, out_features=576, bias=True)
        (W_K): Linear(in_features=144, out_features=576, bias=True)
        (W_V): Linear(in_features=128, out_features=512, bias=True)
        (W_O): Linear(in_features=128, out_features=128, bias=True)
        (dropout): Dropout(p=0.1, inplace=False)
      )
      (norm): LayerNorm(
        (scalar_norm): LayerNorm((128,), eps=1e-05, elementwise_affine=True)
      )
      (dropout): Dropout(
        (sdropout): Dropout(p=0.5, inplace=False)
        (vdropout): _VDropout()
      )
    )
  )
  (psi): Sequential(
    (0): Linear(in_features=16512, out_features=256, bias=True)
    (1): SiLU()
    (2): Dropout(p=0.5, inplace=False)
    (3): Linear(in_features=256, out_features=128, bias=True)
  )
  (W_s): Embedding(4, 4)
  (decoder_layers): ModuleList(
    (0-3): 4 x GVPConvLayer(
      (conv): GVPConv()
      (norm): ModuleList(
        (0-1): 2 x LayerNorm(
          (scalar_norm): LayerNorm((128,), eps=1e-05, elementwise_affine=True)
        )
      )
      (dropout): ModuleList(
        (0-1): 2 x Dropout(
          (sdropout): Dropout(p=0.5, inplace=False)
          (vdropout): _VDropout()
        )
      )
      (ff_func): Sequential(
        (0): GVP(
          (wh): Linear(in_features=16, out_features=32, bias=False)
          (ws): Linear(in_features=160, out_features=512, bias=True)
          (wv): Linear(in_features=32, out_features=32, bias=False)
          (wsv): Linear(in_features=512, out_features=32, bias=True)
        )
        (1): GVP(
          (wh): Linear(in_features=32, out_features=32, bias=False)
          (ws): Linear(in_features=544, out_features=128, bias=True)
          (wv): Linear(in_features=32, out_features=16, bias=False)
          (wsv): Linear(in_features=128, out_features=16, bias=True)
        )
      )
    )
  )
  (W_out): GVP(
    (wh): Linear(in_features=16, out_features=16, bias=False)
    (ws): Linear(in_features=144, out_features=4, bias=True)
  )
)
    Total parameters: 6710568

TRAIN DATASET
    Pre-processing 4025 samples
  0%|          | 0/4025 [00:00<?, ?it/s]  0%|          | 1/4025 [00:00<49:05,  1.37it/s]  0%|          | 6/4025 [00:00<07:17,  9.19it/s]  1%|          | 30/4025 [00:00<01:16, 52.36it/s]  3%|▎         | 120/4025 [00:01<00:16, 229.91it/s]  4%|▍         | 176/4025 [00:0
…
