…
    node_h_dim: [128, 16]
    edge_in_dim: [131, 3]
    edge_h_dim: [64, 4]
    num_layers: 4
    drop_rate: 0.5
    out_dim: 4
    attention_heads: 4
    attention_dropout: 0.1
    epochs: 50
    lr: 0.0001
    label_smoothing: 0.05
    batch_size: 8
    num_workers: 8
    val_every: 5
    model_path: 
    evaluate: False
    n_samples: 16
    temperature: 0.1
    sampling_strategy: categorical
    top_k_sampling: 2
    top_p_sampling: 0.9
    min_p_sampling: 0.05
    beam_width: 2
    beam_branch: 6
    max_temperature: 0.5
    temperature_factor: 0.0

MODEL
    AutoregressiveMultiGNNv1(
  (W_v): Sequential(
    (0): LayerNorm(
      (scalar_norm): LayerNorm((15,), eps=1e-05, elementwise_affine=True)
    )
    (1): GVP(
      (wh): Linear(in_features=4, out_features=16, bias=False)
      (ws): Linear(in_features=31, out_features=128, bias=True)
      (wv): Linear(in_features=16, out_features=16, bias=False)
      (wsv): Linear(in_features=128, out_features=16, bias=True)
    )
  )
  (W_e): Sequential(
    (0): LayerNorm(
      (scalar_norm): LayerNorm((131,), eps=1e-05, elementwise_affine=True)
    )
    (1): GVP(
      (wh): Linear(in_features=3, out_features=4, bias=False)
      (ws): Linear(in_features=135, out_features=64, bias=True)
      (wv): Linear(in_features=4, out_features=4, bias=False)
      (wsv): Linear(in_features=64, out_features=4, bias=True)
    )
  )
  (encoder_layers): ModuleList(
    (0-3): 4 x MultiGVPConvLayer(
      (conv): MultiGVPConv()
      (norm): ModuleList(
        (0-1): 2 x LayerNorm(
          (scalar_norm): LayerNorm((128,), eps=1e-05, elementwise_affine=True)
        )
      )
      (dropout): ModuleList(
        (0-1): 2 x Dropout(
          (sdropout): Dropout(p=0.5, inplace=False)
          (vdropout): _VDropout()
        )
      )
      (ff_func): Sequential(
        (0): GVP(
          (wh): Linear(in_features=16, out_features=32, bias=False)
          (ws): Linear(in_features=160, out_features=512, bias=True)
          (wv): Linear(in_features=32, out_features=32, bias=False)
          (wsv): Linear(in_features=512, out_features=32, bias=True)
        )
        (1): GVP(
          (wh): Linear(in_features=32, out_features=32, bias=False)
          (ws): Linear(in_features=544, out_features=128, bias=True)
          (wv): Linear(in_features=32, out_features=16, bias=False)
          (wsv): Linear(in_features=128, out_features=16, bias=True)
        )
      )
    )
  )
  (W_s): Embedding(4, 4)
  (decoder_layers): ModuleList(
    (0-3): 4 x GVPConvLayer(
      (conv): GVPConv()
      (norm): ModuleList(
        (0-1): 2 x LayerNorm(
          (scalar_norm): LayerNorm((128,), eps=1e-05, elementwise_affine=True)
        )
      )
      (dropout): ModuleList(
        (0-1): 2 x Dropout(
          (sdropout): Dropout(p=0.5, inplace=False)
          (vdropout): _VDropout()
        )
      )
      (ff_func): Sequential(
        (0): GVP(
          (wh): Linear(in_features=16, out_features=32, bias=False)
          (ws): Linear(in_features=160, out_features=512, bias=True)
          (wv): Linear(in_features=32, out_features=32, bias=False)
          (wsv): Linear(in_features=512, out_features=32, bias=True)
        )
        (1): GVP(
          (wh): Linear(in_features=32, out_features=32, bias=False)
          (ws): Linear(in_features=544, out_features=128, bias=True)
          (wv): Linear(in_features=32, out_features=16, bias=False)
          (wsv): Linear(in_features=128, out_features=16, bias=True)
        )
      )
    )
  )
  (W_out): GVP(
    (wh): Linear(in_features=16, out_features=16, bias=False)
    (ws): Linear(in_features=144, out_features=4, bias=True)
  )
)
    Total parameters: 2147944

TRAIN DATASET
    Pre-processing 4025 samples
  0%|          | 0/4025 [00:00<?, ?it/s]  0%|          | 4/4025 [00:00<01:43, 38.83it/s]  0%|          | 20/4025 [00:00<00:38, 104.11it/s]  3%|▎         | 112/4025 [00:00<00:08, 460.06it/s]  5%|▍         | 190/4025 [00:00<00:06, 582.88it/s] 13%|█▎        | 525/4025 [
…
