…
    model: ARv1
    node_in_dim: [15, 4]
    node_h_dim: [128, 16]
    edge_in_dim: [131, 3]
    edge_h_dim: [64, 4]
    num_layers: 4
    drop_rate: 0.5
    out_dim: 4
    model_variant: Hybrid
    transformer_layers: 1
    transformer_heads: 4
    transformer_hidden_dim: 128
    transformer_dropout: 0.1
    epochs: 50
    lr: 0.0001
    label_smoothing: 0.05
    batch_size: 8
    num_workers: 8
    val_every: 5
    model_path: checkpoints/gRNAde_ARv1_1state_das.h5
    evaluate: True
    n_samples: 16
    temperature: 0.1
    beam_width: 5

MODEL
    AutoregressiveMultiGNNv1(
  (W_v): Sequential(
    (0): LayerNorm(
      (scalar_norm): LayerNorm((15,), eps=1e-05, elementwise_affine=True)
    )
    (1): GVP(
      (wh): Linear(in_features=4, out_features=16, bias=False)
      (ws): Linear(in_features=31, out_features=128, bias=True)
      (wv): Linear(in_features=16, out_features=16, bias=False)
      (wsv): Linear(in_features=128, out_features=16, bias=True)
    )
  )
  (W_e): Sequential(
    (0): LayerNorm(
      (scalar_norm): LayerNorm((131,), eps=1e-05, elementwise_affine=True)
    )
    (1): GVP(
      (wh): Linear(in_features=3, out_features=4, bias=False)
      (ws): Linear(in_features=135, out_features=64, bias=True)
      (wv): Linear(in_features=4, out_features=4, bias=False)
      (wsv): Linear(in_features=64, out_features=4, bias=True)
    )
  )
  (encoder_layers): ModuleList(
    (0-3): 4 x MultiGVPConvLayer(
      (conv): MultiGVPConv()
      (norm): ModuleList(
        (0-1): 2 x LayerNorm(
          (scalar_norm): LayerNorm((128,), eps=1e-05, elementwise_affine=True)
        )
      )
      (dropout): ModuleList(
        (0-1): 2 x Dropout(
          (sdropout): Dropout(p=0.5, inplace=False)
          (vdropout): _VDropout()
        )
      )
      (ff_func): Sequential(
        (0): GVP(
          (wh): Linear(in_features=16, out_features=32, bias=False)
          (ws): Linear(in_features=160, out_features=512, bias=True)
          (wv): Linear(in_features=32, out_features=32, bias=False)
          (wsv): Linear(in_features=512, out_features=32, bias=True)
        )
        (1): GVP(
          (wh): Linear(in_features=32, out_features=32, bias=False)
          (ws): Linear(in_features=544, out_features=128, bias=True)
          (wv): Linear(in_features=32, out_features=16, bias=False)
          (wsv): Linear(in_features=128, out_features=16, bias=True)
        )
      )
    )
  )
  (W_s): Embedding(4, 4)
  (decoder_layers): ModuleList(
    (0-3): 4 x GVPConvLayer(
      (conv): GVPConv()
      (norm): ModuleList(
        (0-1): 2 x LayerNorm(
          (scalar_norm): LayerNorm((128,), eps=1e-05, elementwise_affine=True)
        )
      )
      (dropout): ModuleList(
        (0-1): 2 x Dropout(
          (sdropout): Dropout(p=0.5, inplace=False)
          (vdropout): _VDropout()
        )
      )
      (ff_func): Sequential(
        (0): GVP(
          (wh): Linear(in_features=16, out_features=32, bias=False)
          (ws): Linear(in_features=160, out_features=512, bias=True)
          (wv): Linear(in_features=32, out_features=32, bias=False)
          (wsv): Linear(in_features=512, out_features=32, bias=True)
        )
        (1): GVP(
          (wh): Linear(in_features=32, out_features=32, bias=False)
          (ws): Linear(in_features=544, out_features=128, bias=True)
          (wv): Linear(in_features=32, out_features=16, bias=False)
          (wsv): Linear(in_features=128, out_features=16, bias=True)
        )
      )
    )
  )
  (W_out): GVP(
    (wh): Linear(in_features=16, out_features=16, bias=False)
    (ws): Linear(in_features=144, out_features=4, bias=True)
  )
)
    Total parameters: 2147944

TEST DATASET
    Pre-processing 98 samples
  0%|          | 0/98 [00:00<?, ?it/s]  1%|          | 1/98 [00:00<00:10,  9.63it/s]100%|██████████| 98/98 [00:00<00:00, 703.79it/s]
    Finished: 98 pre-processed samples
Loading RibonanzaNet checkpoint: /rds/user/jaf98/hpc-work/geometric-rna-design/tools/ribonanzanet/ribonanzanet.pt
…
